…
pybullet build time: May 20 2022 19:44:17
pybullet build time: May 20 2022 19:44:17
pybullet build time: May 20 2022 19:44:17
pybullet build time: May 20 2022 19:44:17
pybullet build time: May 20 2022 19:44:17
pybullet build time: May 20 2022 19:44:17
pybullet build time: May 20 2022 19:44:17
INFO - imitation.scripts.common.rl - RL algorithm: <class 'stable_baselines3.sac.sac.SAC'>
INFO - imitation.scripts.common.rl - Policy network summary:
 SACPolicy(
  (actor): Actor(
    (features_extractor): FlattenExtractor(
      (flatten): Flatten(start_dim=1, end_dim=-1)
    )
    (latent_pi): Sequential(
      (0): Linear(in_features=7, out_features=256, bias=True)
      (1): ReLU()
      (2): Linear(in_features=256, out_features=256, bias=True)
      (3): ReLU()
    )
    (mu): Linear(in_features=256, out_features=4, bias=True)
    (log_std): Linear(in_features=256, out_features=4, bias=True)
  )
  (critic): ContinuousCritic(
    (features_extractor): FlattenExtractor(
      (flatten): Flatten(start_dim=1, end_dim=-1)
    )
    (qf0): Sequential(
      (0): Linear(in_features=11, out_features=256, bias=True)
      (1): ReLU()
      (2): Linear(in_features=256, out_features=256, bias=True)
      (3): ReLU()
      (4): Linear(in_features=256, out_features=1, bias=True)
    )
    (qf1): Sequential(
      (0): Linear(in_features=11, out_features=256, bias=True)
      (1): ReLU()
      (2): Linear(in_features=256, out_features=256, bias=True)
      (3): ReLU()
      (4): Linear(in_features=256, out_features=1, bias=True)
    )
  )
  (critic_target): ContinuousCritic(
    (features_extractor): FlattenExtractor(
      (flatten): Flatten(start_dim=1, end_dim=-1)
    )
    (qf0): Sequential(
      (0): Linear(in_features=11, out_features=256, bias=True)
      (1): ReLU()
      (2): Linear(in_features=256, out_features=256, bias=True)
      (3): ReLU()
      (4): Linear(in_features=256, out_features=1, bias=True)
    )
    (qf1): Sequential(
      (0): Linear(in_features=11, out_features=256, bias=True)
      (1): ReLU()
      (2): Linear(in_features=256, out_features=256, bias=True)
      (3): ReLU()
      (4): Linear(in_features=256, out_features=1, bias=True)
    )
  )
)
argv[0]=
argv[0]=
argv[0]=
argv[0]=
argv[0]=
argv[0]=
argv[0]=
argv[0]=
argv[0]=
argv[0]=
argv[0]=
argv[0]=
argv[0]=
argv[0]=
argv[0]=
argv[0]=
b3Warning[examples/Importers/ImportURDFDemo/BulletUrdfImporter.cpp,126]:
Duplicate materialb3Warning[examples/Importers/ImportURDFDemo/BulletUrdfImporter.cpp,126]:
Duplicate materialb3Warning[examples/Importers/ImportURDFDemo/BulletUrdfImporter.cpp,126]:
…
